app/chatbot_code/data.pth (torch, 8127 bytes, 6 tensors)

l1.weight f4 [8, 113]
0.14225203 0.5959472 -0.044872265 -0.037499055 -0.03212152 0.20684746 0.1605222 0.46711826
-0.3503851 0.19354802 0.07679011 0.481128 0.016881054 0.6428687 -0.18076254 0.7548138
-0.16304672 -0.14126438 -0.6383215 0.49488157 -0.19662406 0.7522875 -0.3159447 0.4696261
0.37639943 0.8791744 0.023929935 0.36344013 0.53366095 0.6982419 0.063608654 0.10934056
0.49871245 0.8432652 0.47681624 0.4235339 0.4397382 0.4437118 0.43889683 0.69530493
0.45014054 0.33438528 0.35562652 -0.064809054 0.01763058 0.020166684 -0.0924932 0.13867205
0.8231591 -0.16289589 0.08929473 0.19341722 -0.073103555 0.0019769608 0.3059936 -0.11321213
-0.37428126 0.6426892 0.3569601 -0.39307204 0.52021694 0.11442445 -0.096472465 -0.061241254
-0.25863108 1.0562898 0.45738977 0.058877304 0.020628078 -0.5634437 0.58725256 0.16941993
0.2885027 -0.37402698 0.33611333 0.661943 0.45767933 0.16810521 -0.87007576 0.5016271
1.0614622 0.43564636 0.22165787 -0.09856807 0.10230801 0.07931751 1.2122692 -0.2798473
-0.25516945 0.4369858 0.57485896 -0.2610848 0.12705435 0.5367517 0.57213604 0.11566091
0.35592186 0.14820051 0.07222362 0.28903311 -0.41891474 0.28312933 0.49254236 0.63407385
0.2451518 -0.44673592 0.6195464 -0.2992777 -0.42124668 -0.42589948 0.3271666 -0.050702877
0.4302805 -0.11163251 0.9185079 -0.5121168 -0.11241766 -0.55847716 0.4099973 0.16141297
-0.21819945 0.03095414 -0.23933378 -0.5865441 0.825756 -0.55825096 0.970677 -0.36057317
-0.16199248 -0.24520221 0.0884849 -0.6772492 -0.003885003 -0.32040176 0.27331832 0.29113844
0.07227888 0.32019916 0.14879669 -0.18400183 0.8160006 -0.030350026 0.09065937 -0.60260236
-0.16734819 0.8119375 -0.8005247 0.67246467 0.7981375 0.834631 0.85504925 0.71161926
0.01362412 0.32516068 0.1352063 0.67074 0.6429817 -0.081362695 -0.425396 0.24750975
-0.21662778 0.16713603 -0.4045482 -0.18848373 0.24527213 -0.16610204 -0.4349625 0.1641793
0.0036630144 0.137308 1.0006728 0.80394155 -0.35705796 0.3655094 -0.23807876 -0.40598315
-0.28619167 0.09824014 -0.021267088 0.22022088 -0.2151638 -0.023244282 -0.7180124 0.3509322
0.63044316 0.566147 0.06726901 0.2577254 -0.06672872 0.30760053 -0.13656229 -0.92233646
0.16952394 0.95152384 0.5123095 -0.2633742 -0.18030351 0.5670217 0.59008 0.05510715
-0.21596813 0.014179663 0.57482386 0.05560529 -0.018336847 0.720209 0.4414543 -0.03955772
0.18351743 0.6056136 -0.12263009 -0.20052135 0.8673502 -0.6383932 0.18284303 -0.09273568
0.30420637 -0.33103374 -0.44289124 0.190589 -0.13959555 -0.6651818 -0.62475127 0.7818611
-0.082796 -0.21086639 -0.06485638 0.20518322 0.6344311 -0.64811003 -0.020252759 -0.38935694
-0.38723126 -0.083810024 0.6363243 0.22504532 0.015598497 0.10416878 -0.055415183 0.5481511
-0.13055976 -0.19313799 -0.56819534 -0.6231766 1.0928364 0.40374967 -0.42420986 0.5269338
0.87782115 0.43410304 0.46970624 0.41840804 0.31090438 0.1709787 -0.42699644 0.5853252
00000000: 84aa 113e ff8f 183f fbcb 37bd 9c98 19bd
00000010: db91 03bd d2cf 533e ee5f 243e 202a ef3e
00000020: ad65 b3be 7431 463e 2244 9d3d 6956 f63e
00000030: 234a 8a3c 0b93 243f d119 39be 7a3b 413f
00000040: b8f5 26be 9ca7 10be 0a69 23bf 1e61 fd3e
00000050: d157 49be ea95 403f 81c3 a1be d572 f03e
00000060: 6db7 c03e 9311 613f b608 c43c d314 ba3e
00000070: 019e 083f fbbf 323f 4145 823d f2ed df3d
00000080: 3d57 ff3e 3ae0 573f 4221 f43e 6fd9 d83e
00000090: 5e25 e13e 312e e33e 16b7 e03e 81ff 313f
000000a0: d278 e63e 8c34 ab3e ae14 b63e 9cba 84bd
000000b0: 026e 903c 9a34 a53c 136d bdbd 0c00 0e3e
000000c0: 8eba 523f 2ece 26be 28e0 b63d 2a0f 463e
000000d0: 51b7 95bd e68f 013b 31ab 9c3e c3db e7bd
000000e0: cba1 bfbe 4887 243f 79c3 b63e bd40 c9be
000000f0: f02c 053f 5e57 ea3d 5b93 c5bd 1cd8 7abd
00000100: 4b6b 84be 8134 873f fe2e ea3e 5429 713d
00000110: 37fc a83c d93d 10bf 2f56 163f 6b7c 2d3e
00000120: a0b6 933e 7780 bfbe 0c17 ac3e 1975 293f
00000130: f254 ea3e c623 2c3e 49bd 5ebf a26a 003f
00000140: fedd 873f 0a0d df3e 48fa 623e 0ede c9bd
00000150: dd86 d13d 3871 a23d a32b 9b3f 2548 8fbe
00000160: 92a5 82be 9abc df3e f529 133f e8ac 85be
00000170: 891a 023e 8f68 093f 8277 123f a1df ec3d
00000180: 643b b63e e0c1 173e fae9 933d 26fc 933e
00000190: fe7b d6be 54f6 903e 832e fc3e aa52 223f
000001a0: 1309 7b3e 92ba e4be 989a 1e3f ed3a 99be
000001b0: a5ad d7be 7f0f dabe 6182 a73e d2ad 4fbd
000001c0: ba4d dc3e 969f e4bd 5523 6b3f 161a 03bf
000001d0: 3b3b e6bd 5cf8 0ebf 2beb d13e 7149 253e
000001e0: ad6f 5fbe 8993 fd3c ea13 75be c127 16bf
000001f0: bf64 533f 89e9 0ebf 4a7e 783f 0c9d b8be
00000200: 5be1 25be 4a16 7bbe 9237 b53d 3460 2dbf
00000210: 899b 7ebb b30b a4be 61f0 8b3e 1910 953e
00000220: f306 943d 25f1 a33e 295e 183e fa6a 3cbe
00000230: 6ae5 503f 9ea0 f8bc 9fab b93d 2644 1abf
00000240: 535d 2bbe 23db 4f3f 30ef 4cbf a526 2c3f
00000250: bd52 4c3f 61aa 553f 82e4 5a3f ae2c 363f
00000260: b337 5f3c 767b a63e 8573 0a3e 9eb5 2b3f
00000270: 739a 243f 7ca1 a6bd 81cd d9be 3273 7d3e
00000280: acd3 5dbe b525 2b3e f120 cfbe e101 41be
00000290: 9e28 7b3e a716 2abe 68b3 debe 9e1e 283e
000002a0: 2f0f 703b 789a 0c3e 0c16 803f 1dcf 4d3f
000002b0: 4dd0 b6be 0c24 bb3e ebca 73be 06dd cfbe
000002c0: b787 92be 2032 c93d 5138 aebc 9581 613e
000002d0: e653 5cbe cb6a bebc a9cf 37bf 63ad b33e
000002e0: b964 213f 03ef 103f 56c4 893d 95f4 833e
000002f0: 11a9 88bd d17d 9d3e fcd6 0bbe 3e1e 6cbf
00000300: af97 2d3e 1197 733f b726 033f fcd8 86be
00000310: 7ca1 38be 5628 113f 7c0f 173f 09b8 613d
00000320: c026 5dbe d151 683c a827 133f 5fc2 633d
00000330: 2837 96bc 9e5f 383f 4c06 e23e 4707 22bd
00000340: feeb 3b3e 7e09 1b3f 7c25 fbbd 7855 4dbe
00000350: aa0a 5e3f bd6d 23bf 343b 3b3e 34ec bdbd
00000360: f0c0 9b3e 417d a9be a4c2 e2be c329 433e
00000370: 23f2 0ebe 5b49 2abf b3ef 1fbf 0d28 483f
00000380: f390 a9bd 5ced 57be 6cd3 84bd 8d1b 523e
00000390: 146a 223f 8aea 25bf 1de9 a5bc cb59 c7be
000003a0: 2d43 c6be 97a4 abbd 26e6 223f 4872 663e
000003b0: d790 7f3c 7156 d53d 08fb 62bd a153 0c3f
000003c0: 75b1 05be f7c5 45be 4075 11bf 8088 1fbf
000003d0: 10e2 8b3f 47b8 ce3e 0932 d9be 22e5 063f
000003e0: e3b8 603f c142 de3e 567d f03e 9439 d63e
000003f0: dc2e 9f3e 0a15 2f3e 479f dabe dfd7 153f

l1.bias f4 [8]
1.0951607 0.7441783 0.7998147 0.76949364 0.66431016 0.86280346 0.83044 0.7230749
00000000: 3a2e 8c3f 7882 3e3f a8c0 4c3f 89fd 443f
00000010: 3b10 2a3f b0e0 5c3f b797 543f 701b 393f

l2.weight f4 [8, 8]
-0.1810544 0.35577953 -0.18669043 0.28952393 0.5353691 -0.116703294 1.8837028 1.5872647
0.92968285 1.2925285 1.209665 -0.3914406 -0.6767867 -0.62399065 -0.4718015 1.0238309
1.5856582 -0.08317576 -1.4200608 1.5093498 1.5786356 -0.98077095 1.3232598 1.001034
-0.5745578 -0.6791062 1.0693558 0.55016 1.2597064 -0.54686606 0.112722374 1.2947793
1.6915944 1.5488704 0.78192765 1.4292511 -1.7284702 -0.7607987 -0.13971171 -0.12161634
1.111816 0.20081817 0.7003462 -1.3241795 1.3946892 1.817099 -0.9164329 0.54830205
1.5074375 0.95853513 -1.1562046 -1.0936573 -0.12098855 1.624014 0.7493087 0.3701938
0.27886614 -0.966675 1.7391958 1.1158177 0.548711 1.6637163 0.45072308 -1.2027732
00000000: 5366 39be bc28 b63e c72b 3fbe 7b3c 943e
00000010: f30d 093f 2302 efbd 2c1d f13f 7d2b cb3f
00000020: b2ff 6d3f 9371 a53f 4dd6 9a3f e76a c8be
00000030: e541 2dbf dabd 1fbf f78f f1be e40c 833f
00000040: d9f6 ca3f 0e58 aabd 8dc4 b5bf 6032 c13f
00000050: bb10 ca3f ce13 7bbf 9460 a93f e221 803f
00000060: 3816 13bf e7d9 2dbf a7e0 883f 49d7 0c3f
00000070: 0f3e a13f 6aff 0bbf fdda e63d 54bb a53f
00000080: 2a86 d83f 6341 c63f 692c 483f b3f1 b63f
00000090: 833e ddbf b4c3 42bf 9610 0fbe fd11 f9bd
000000a0: fd4f 8e3f 47a3 4d3e e349 333f b77e a9bf
000000b0: 2d85 b23f b396 e83f 599b 6abf 865d 0c3f
000000c0: b6f3 c03f 8f62 753f 83fe 93bf f6fc 8bbf
000000d0: d8c8 f7bd b1df cf3f b2d2 3f3f 0b8a bd3e
000000e0: 8bc7 8e3e 0378 77bf f89d de3f 1dd3 8e3f
000000f0: 5378 0c3f a8f4 d43f 2dc5 e63e 79f4 99bf

l2.bias f4 [8]
0.0011825723 -0.03518817 0.3408673 0.025263187 0.7104717 0.35570803 0.5589765 0.6202859
00000000: 8b00 9b3a 7821 10bd 2986 ae3e bef4 ce3c
00000010: 79e1 353f 5d1f b63e 1519 0f3f 0fcb 1e3f

l3.weight f4 [17, 8]
-1.2781316 0.46725592 -0.86639744 -1.9890018 0.71445394 -0.1452571 0.24804096 -1.8082789
-0.54622316 -0.26903585 -0.13626316 -2.775174 0.44030932 -0.65639967 0.07362347 -0.32942674
-1.0121112 0.49253094 -1.8000071 0.2586262 0.33729315 -0.083203554 -0.96133286 -0.66326773
0.09506992 -0.30683118 -1.4527076 0.7113245 -1.1682761 0.30435795 -0.41633213 -0.37899172
-0.13422716 0.014411575 0.31913024 0.1244996 -0.32294834 -0.5649583 -1.1291445 -1.01121
-2.7489882 -0.3073818 -0.556521 -1.1917797 0.21465802 0.34647742 0.3963546 -0.3352048
-0.14328124 -0.045371093 -2.0381262 -1.4759928 -0.06985018 0.32365808 0.43826258 -0.60796595
-1.1973283 -2.00547 -0.85982776 -1.4358845 -1.3283111 0.6770063 0.8786237 0.45251516
0.28661814 -0.3354391 0.45607674 -1.060181 0.25681397 -1.8270223 0.5455942 -2.1023843
0.18618996 -2.1786845 0.37337232 -1.0646462 -0.3792139 -0.9191127 0.37510398 -0.0030987158
-1.1040218 -0.18288817 0.017694231 -0.5814793 0.45649314 -1.8637224 -1.6618898 0.22997755
0.16059238 -1.6014822 0.66076726 0.3405648 -2.2032726 -0.4220024 -1.0315363 -0.2833035
0.7754039 -1.923818 0.7690373 0.34116593 -0.80797464 -2.4069128 -0.9019987 -0.858604
-0.307413 -2.6981924 -0.29355896 0.39918342 -0.6908919 -0.9128567 -1.7767282 0.7114805
-1.0692399 -0.31799942 0.20301373 -3.631722 0.03621382 0.39128163 0.7057767 -1.8947201
0.2623081 -0.90151995 0.1650505 -0.45059225 -1.7563987 0.15222336 0.769888 -1.5893161
-2.5560975 -0.9736883 -2.1621945 0.40255833 0.2583427 0.3816173 -1.0651128 0.71861714
00000000: d199 a3bf 2b3c ef3e 39cc 5dbf 9c97 febf
00000010: 74e6 363f 47be 14be 73fe 7d3e af75 e7bf
00000020: 48d5 0bbf 11bf 89be 9288 0bbe 739c 31c0
00000030: 3970 e13e cf09 28bf e7c7 963d 9faa a8be
00000040: dc8c 81bf 042d fc3e a266 e6bf a76a 843e
00000050: b0b1 ac3e a066 aabd e919 76bf eacb 29bf
00000060: 05b4 c23d fa18 9dbe 53f2 b9bf 5d19 363f
00000070: 128a 95bf ced4 9b3e 7c29 d5be 340b c2be
00000080: d872 09be 871e 6c3c 0a65 a33e a5f9 fe3d
00000090: 7c59 a5be 1ba1 10bf cf87 90bf 546f 81bf
000000a0: 6cef 2fc0 2661 9dbe 2978 0ebf 3d8c 98bf
000000b0: 50cf 5b3e 7d65 b13e fdee ca3e f79f abbe
000000c0: 51b8 12be 0ad7 39bd a970 02c0 55ed bcbf
000000d0: 9c0d 8fbd 83b6 a53e f463 e03e a8a3 1bbf
000000e0: 0e42 99bf 9f59 00c0 ac1d 5cbf 10cb b7bf
000000f0: 1906 aabf 4950 2d3f 7ced 603f 11b0 e73e
00000100: 9dbf 923e acbe abbe e482 e93e 03b4 87bf
00000110: 1f7d 833e dedb e9bf 10ac 0b3f 778d 06c0
00000120: 95a8 3e3e 916f 0bc0 a82a bf3e 5446 88bf
00000130: 5328 c2be f84a 6bbf a10d c03e d313 4bbb
00000140: 9650 8dbf 0947 3bbe 7ef3 903c d4db 14bf
00000150: 78b9 e93e 758e eebf ceb8 d4bf 3c7f 6b3e
00000160: 5472 243e 5efd ccbf 0b28 293f 825e ae3e
00000170: 6b02 0dc0 b310 d8be 6209 84bf 280d 91be
00000180: df80 463f ab3f f6bf a1df 443f 4dad ae3e
00000190: 6dd7 4ebf dc0a 1ac0 63e9 66bf 79cd 5bbf
000001a0: 3d65 9dbe 2faf 2cc0 5c4d 96be c561 cc3e
000001b0: 4bde 30bf fab0 69bf d46b e3bf 9623 363f
000001c0: dadc 88bf d2d0 a2be d5e2 4f3e 226e 68c0
000001d0: f154 143d 1156 c83e c8ad 343f 3086 f2bf
000001e0: 3f4d 863e 03ca 66bf 0003 293e 07b4 e6be
000001f0: acd1 e0bf 71e0 1b3e 6117 453f b66e cbbf
00000200: 1a97 23c0 a343 79bf 6561 0ac0 201c ce3e
00000210: 7f45 843e 5863 c33e 9e55 88bf 4bf7 373f

l3.bias f4 [17]
-0.47269636 -0.13349472 -0.123323984 0.06910541 -0.22493848 -0.006770939 -0.41064158 0.52522963
0.07324146 -0.3695147 0.25928837 -0.09036323 -0.20781088 0.29107192 -0.10096567 -0.025778126
0.4129731
00000000: 4205 f2be d7b2 08be 4991 fcbd 2387 8d3d
00000010: 4656 66be c1de ddbb 9d3f d2be 7375 063f
00000020: 9eff 953d 0831 bdbe 72c1 843e 5b10 b9bd
00000030: 60cc 54be 6107 953e 17c7 cebd a62c d3bc
00000040: 3671 d33e
