app/chatbot_code/data.pth (torch, 4991 bytes, 6 tensors)

l1.weight f4 [8, 54]
0.5263949 -0.10151199 0.41637188 -0.17206487 -0.07783694 -0.5468655 0.21874577 0.29043457
0.5431758 0.21989185 -0.31215924 0.5105614 0.24417292 0.7530061 -0.05858475 0.31280592
-0.23420882 -0.54671735 0.030808715 -0.5469632 0.5380293 -0.54696435 -0.546664 -0.16186845
0.49686888 -0.32834908 0.104158126 -0.29538253 0.34733742 -0.43354574 -0.37950253 0.6966605
0.3202163 0.38100582 -0.21905176 0.5124438 0.2603063 0.5366236 0.41348597 0.3599503
-0.4360474 -0.021482106 0.5737657 -0.09230515 0.64442337 -0.010681876 1.3139111 0.5539725
-0.04604721 -0.02506245 0.3593517 -0.06598674 0.15380973 0.27039403 -0.18873069 -0.55402756
0.51819015 0.21806772 0.6152075 0.9039008 0.2401657 0.2906633 0.34840283 0.4256432
0.2724477 -0.4047196 0.29327646 -0.4758168 -0.2594086 -0.36430922 0.1799759 0.9494044
0.5577 0.31189382 -0.30195254 0.3176705 0.2682861 0.21974683 0.18207827 0.117872916
0.6563037 -0.5450334 0.51971513 -0.37195486 0.71586686 -0.41390193 -0.14036997 0.3812796
-0.07916923 -0.19031356 0.40748042 0.23346493 0.38350013 0.3926145 0.6242223 0.67303705
-0.33009645 -0.22307333 0.17891659 -0.26000562 -0.7993579 -0.33061433 0.31312248 0.5967809
-0.33730924 0.59352255 0.30629468 0.3563667 0.56242114 -0.2892378 -0.36051345 0.5160854
0.38263085 0.9470406 0.07593069 -0.00017705161 -0.35221812 0.04350321 0.3489006 -0.37759605
0.16699895 -0.506338 -0.18982074 -0.19150212 0.3054811 1.0672512 0.27870744 0.42208573
0.5375392 0.67078626 0.70305717 0.51003796 -0.0903498 0.3421035 0.40031004 -0.6018726
0.18677744 -0.6170154 0.7412994 -0.55480075 0.45466664 -0.25213915 -0.27549455 -0.20631297
0.27675816 -0.31303793 0.004993973 0.104340576 0.73500043 0.47707403 -0.2922758 -0.35011
-0.12952223 -0.24298534 0.43557996 0.3536532 0.49094445 0.45164168 -0.35960147 0.27654663
0.12387764 0.31440443 0.48382837 0.49609944 -0.22877587 0.6246687 0.18686569 -0.72010565
-0.10190102 0.009798668 -0.4049242 -0.13758187 0.73406804 -0.2982696 -0.2448957 -0.31903517
0.35120925 -0.109080784 0.7212202 -0.6667315 -0.2555439 0.8788343 0.31249687 0.6585275
0.68792427 0.7318529 -0.17002419 0.4154157 -0.28599226 0.5624704 -0.3789687 0.36450222
-0.4069081 -0.3950224 0.4825276 -0.21528627 0.54343605 -0.11047128 -0.2657732 -0.17915526
-0.012326213 -0.034479592 -0.35204384 -0.3383626 -0.40134853 0.34090814 -0.4762221 0.5937251
0.9057679 0.40708748 0.36570933 -0.4174312 -0.04463271 -0.21426651 -0.06811342 0.112408
0.72644645 -0.11879496 0.32805693 -0.016871497 0.052746322 -0.40815428 0.32105073 0.36998647
0.4882722 0.39827353 -0.17964001 0.5709973 0.18748398 0.6310659 0.032794133 0.27759507
-0.22850426 -0.40816712 -0.3380907 -0.3476181 0.6473649 -0.17004056 -0.19632037 -0.005022382
0.50013244 -0.064522006 -0.3819809 -0.28048855 0.074334726 -0.27616414 -0.36706322 0.3831759
0.42196265 0.47284073 -0.19073005 0.44626474 0.026336461 0.41998672 0.2171358 0.35288557
00000000: d1c1 063f 85e5 cfbd b22e d53e c631 30be
00000010: f968 9fbd 61ff 0bbf e4fe 5f3e d7b3 943e
00000020: 920d 0b3f 542b 613e 56d3 9fbe 27b4 023f
00000030: 7708 7a3e 02c5 403f 90f6 6fbd 1928 a03e
00000040: 70d4 6fbe abf5 0bbf 8f62 fc3c c805 0cbf
00000050: 4abc 093f db05 0cbf 2cf2 0bbf d8c0 25be
00000060: 9965 fe3e 5f1d a8be db50 d53d 613c 97be
00000070: 36d6 b13e b5f9 ddbe 284e c2be 5858 323f
00000080: 64f3 a33e 3213 c33e 1b4f 60be 842f 033f
00000090: de46 853e 2a60 093f 6fb4 d33e 684b b83e
000000a0: 9b41 dfbe 3efb afbc 4fe2 123f 7c0a bdbd
000000b0: eef8 243f 0903 2fbc 3d2e a83f 24d1 0d3f
000000c0: 009c 3cbd c44f cdbc f2fc b73e 0e24 87bd
000000d0: 4c80 1d3e 1671 8a3e 9e42 41be c0d4 0dbf
000000e0: 1ca8 043f 254d 5f3e 3d7e 1d3f 0b66 673f
000000f0: ffed 753e d2d1 943e db61 b23e e8ed d93e
00000100: 447e 8b3e 6837 cfbe 5528 963e 429e f3be
00000110: 34d1 84be bd86 babe 9a4b 383e 2b0c 733f
00000120: 6dc5 0e3f 8cb0 9f3e 8699 9abe b5a5 a23e
00000130: cc5c 893e 5005 613e ba72 3a3e 5b67 f13d
00000140: 8503 283f 4f87 0bbf 0d0c 053f de70 bebe
00000150: 0d43 373f f4ea d3be 25bd 0fbe 1437 c33e
00000160: 7a23 a2bd 8fe1 42be 46a1 d03e 6e11 6f3e
00000170: 215a c43e c504 c93e 08cd 1f3f 284c 2c3f
00000180: 6702 a9be 566d 64be e935 373e 751f 85be
00000190: b8a2 4cbf 4846 a9be 9751 a03e a2c6 183f
000001a0: ccb3 acbe 18f1 173f a8d2 9c3e b275 b63e
000001b0: d5fa 0f3f fa16 94be 3895 b8be 2c1e 043f
000001c0: 31e8 c33e 4171 723f 8d81 9b3d eea6 39b9
000001d0: ef55 b4be 6c30 323d 19a3 b23e 4554 c1be
000001e0: c601 2b3e 5e9f 01bf 5e60 42be 2219 44be
000001f0: 0568 9c3e b09b 883f beb2 8e3e 9f1b d83e
00000200: 2b9c 093f a6b8 2b3f 8efb 333f d991 023f
00000210: 5109 b9bd 3128 af3e 70f5 cc3e 5314 1abf
00000220: 9642 3f3e b9f4 1dbf ccc5 3d3f 6c07 0ebf
00000230: 11ca e83e 6218 81be 9f0d 8dbe b543 53be
00000240: 3fb3 8d3e 8246 a0be 7ba4 a33b 83b0 d53d
00000250: fd28 3c3f 0c43 f43e 2ca5 95be 9e41 b3be
00000260: 7aa1 04be 26d1 78be 5604 df3e 0812 b53e
00000270: 125d fb3e 943d e73e af1d b8be 8597 8d3e
00000280: 8fb3 fd3d 9ef9 a03e 5ab8 f73e bf00 fe3e
00000290: 3944 6abe 4aea 1f3f b859 3f3e d858 38bf
000002a0: 7bb1 d0bd 988a 203c 3a52 cfbe 43e2 0cbe
000002b0: e2eb 3b3f cbb6 98be f0c5 7abe 9458 a3be
000002c0: b3d1 b33e bf65 dfbd e3a1 383f eaae 2abf
000002d0: a6d6 82be 49fb 603f 97ff 9f3e 4295 283f
000002e0: ce1b 303f b65a 3b3f d21a 2ebe 5eb1 d43e
000002f0: 946d 92be 0ffe 0f3f 2f08 c2be 09a0 ba3e
00000300: 4256 d0be 6040 cabe dc0d f73e 0174 5cbe
00000310: a01e 0b3f c43e e2bd 6d13 88be 7a74 37be
00000320: e2f3 49bc 793a 0dbd 173f b4be dd3d adbe
00000330: 8e7d cdbe 838b ae3e 62d3 f3be 5efe 173f
00000340: 68e0 673f c56d d03e 413e bb3e 8bb9 d5be
00000350: cad0 36bd ae68 5bbe 0c7f 8bbd 2a36 e63d
00000360: 65f8 393f c64a f3bd 14f7 a73e 1836 8abc
00000370: 870c 583d 99f9 d0be c360 a43e de6e bd3e
00000380: d0fe f93e 82ea cb3e 8df3 37be e12c 123f
00000390: cdfb 3f3e 898d 213f 2453 063d f120 8e3e
000003a0: 05fd 69be 48fb d0be 391a adbe 00fb b1be
000003b0: b5b9 253f 1d1f 2ebe 3508 49be cb92 a4bb
000003c0: ae08 003f 1d24 84bd 0093 c3be 329c 8fbe
000003d0: ce3c 983d 6365 8dbe b6ef bbbe a22f c43e
000003e0: 7d0b d83e 2e18 f23e bd4e 43be d07c e43e
000003f0: 90bf d73c 8008 d73e d958 5e3e 6bad b43e

l1.bias f4 [8]
0.54666024 0.8213973 1.0583105 0.8882035 0.40796015 -0.12429781 1.0078644 0.68143505
00000000: edf1 0b3f 1847 523f b876 873f 4e61 633f
00000010: 27e0 d03e da8f febd b301 813f 8772 2e3f

l2.weight f4 [8, 8]
-0.5583905 -0.25739628 0.81945175 1.3521004 -0.3343415 0.0183582 1.5880512 1.0660213
-0.83642906 0.48385248 1.0768269 0.9440839 -0.842365 0.21081041 0.77690184 0.6312217
0.9064634 0.3643328 0.34299627 -0.89502907 0.36231074 0.32273367 -0.7408373 -0.033003826
-0.5453691 1.1668382 0.9535302 -0.7494337 -1.2765114 0.21585748 -0.012107154 -1.2717268
1.0687019 -1.3684409 -0.2734302 0.49676096 1.1947987 0.27164587 0.46600947 1.1308424
0.26372486 0.4352257 0.6811846 -0.94211274 -0.40683132 -0.17498428 -1.3953956 -1.4595867
0.26501304 1.1146315 1.1999823 0.37615052 0.41103885 -0.17776696 0.011683202 -0.60336167
1.3607539 0.5174776 0.63215995 0.23735589 1.2943927 -0.2574145 -0.41699994 -0.22758721
00000000: aef2 0ebf 72c9 83be 97c7 513f a011 ad3f
00000010: cf2e abbe f063 963c 4345 cb3f 6373 883f
00000020: 3720 56bf 83bb f73e 77d5 893f 7caf 713f
00000030: 3ca5 57bf afde 573e 0ae3 463f bf97 213f
00000040: fc0d 683f d489 ba3e 359d af3e a020 65bf
00000050: cb80 b93e 593d a53e 83a7 3dbf 052f 07bd
00000060: 4f9d 0bbf f45a 953f 8e1a 743f e3da 3fbf
00000070: ba64 a3bf be09 5d3e 165d 46bc f2c7 a2bf
00000080: 39cb 883f 1229 afbf 0bff 8bbe 7457 fe3e
00000090: 2aef 983f 2b15 8b3e cb98 ee3e 72bf 903f
000000a0: f206 873e e7d5 de3e 1d62 2e3f 4d2e 71bf
000000b0: 324c d0be 142f 33be 539c b2bf bdd3 babf
000000c0: caaf 873e 3fac 8e3f 0599 993f cd96 c03e
000000d0: af73 d23e 8b08 36be e76a 3f3c e975 1abf
000000e0: 2f2d ae3f 6979 043f 3cd5 213f 6c0d 733e
000000f0: a9ae a53f d5cb 83be 0481 d5be 9f0c 69be

l2.bias f4 [8]
0.5733237 0.54076093 -0.2182756 0.14412937 -0.0027708807 -0.17195421 0.4706655 0.5582138
00000000: 58c5 123f 4f6f 0a3f a483 5fbe a696 133e
00000010: aa97 35bb c414 30be 12fb f03e 19e7 0e3f

l3.weight f4 [7, 8]
-0.38728347 -1.223629 0.6096386 -0.2983996 0.6248962 -1.0448908 -0.7228599 0.3283918
0.46794277 0.3368366 -0.9691193 -0.37632126 0.6515711 0.16381982 -1.3745362 -1.2899089
0.108241595 0.22223578 -1.0496874 0.8392377 -1.5622715 -1.369163 0.2905667 -0.1119819
0.7722789 0.41876072 -0.81455475 -1.5209223 -1.2794236 -0.60864675 0.32494393 -0.2342862
-1.0076104 0.06972525 0.69440234 0.71647924 -1.0366213 1.2564218 0.2701803 -0.22654459
-1.0220683 -0.85466635 0.7995244 -0.6417287 -0.5641874 -0.9887702 0.5466105 0.7472481
0.2356749 -0.2990495 -1.6062292 -1.072468 0.47315416 -0.68787605 0.03383829 0.16465351
00000000: 054a c6be e09f 9cbf 4611 1c3f d5c7 98be
00000010: 33f9 1f3f fbbe 85bf 590d 39bf f822 a83e
00000020: 3296 ef3e d975 ac3e 3418 78bf 2ead c0be
00000030: 5dcd 263f 62c0 273e cdf0 afbf bc1b a5bf
00000040: c5ad dd3d c791 633e 285c 86bf 48d8 563f
00000050: 83f8 c7bf bc40 afbf 29c5 943e c456 e5bd
00000060: 12b4 453f ce67 d63e a986 50bf 95ad c2bf
00000070: 27c4 a3bf 46d0 1bbf 0d5f a63e b9e8 6fbe
00000080: 61f9 80bf 1dcc 8e3d 5ac4 313f 2f6b 373f
00000090: 02b0 84bf 6ed2 a03f 1355 8a3e 4efb 67be
000000a0: 22d3 82bf 6acb 5abf a2ad 4c3f 5548 24bf
000000b0: 966e 10bf 0b20 7dbf aaee 0b3f a74b 3f3f
000000c0: c354 713e 041d 99be eb98 cdbf a246 89bf
000000d0: 4341 f23e a518 30bf 059a 0a3d ee9a 283e

l3.bias f4 [7]
0.15470365 0.0054693967 0.11645376 -0.09750133 -0.36825278 0.11858219 -0.36495972
00000000: a26a 1e3e a038 b33b 4f7f ee3d c7ae c7bd
00000010: a18b bcbe 38db f23d 00dc babe
